weights/best_mlp_300_normalized_split_by_video.pth (torch, 209611 bytes, 26 tensors)

fc1.weight f4 [128, 300]
000000 6d 58 2a 3c 73 86 2d 3c de 3b 31 3a 7f d8 23 3c
       0.010397059 0.010591137 0.0006760935 0.010000347
000010 61 98 4a 3c 19 83 91 bc ae 9c 7b 3d b6 fe bc bc
       0.0123654315 -0.017762708 0.06142872 -0.023070674
000020 97 21 7c bc 75 da 0a 3c ee 97 94 bd 2c de 94 3d
       -0.015388868 0.008474936 -0.07255541 0.072689384
000030 08 af 16 bd da f4 8f 3d 6d e6 07 3d 06 30 10 bd
       -0.036788017 0.070291236 0.033178736 -0.03520205
000040 13 e5 ec bd 41 79 b9 bb b4 57 55 3a 9e 4f 05 bc
       -0.1156713 -0.0056602065 0.0008138374 -0.008136658
000050 7a 5a 8f 3c 95 4a 23 bc bd fc 84 3d d3 bd ee 3d
       0.017499197 -0.009966512 0.064935185 0.116573
000060 54 1f da 3c 5d d5 cd 3d 30 13 8b 3d 37 bb fe ba
       0.026626267 0.100504614 0.06790769 -0.0019434456
000070 bb f8 1e bd 81 ed 30 bc 5c a7 8b bc f2 90 18 bd
       -0.038811427 -0.010798813 -0.017047577 -0.037247606
000080 bd d9 6e 3d 73 c6 5f 3d b0 b5 b3 bc 61 d5 21 bc
       0.05831312 0.054632615 -0.021937221 -0.009877534
000090 ee 92 cf bc 0c 5f 9d bc cc 18 4b 3d 70 63 96 3d
       -0.025338616 -0.019210361 0.049584195 0.07343185
0000a0 45 24 79 bd 82 42 76 bd dc b2 70 3c 6e a3 1e 3b
       -0.060825605 -0.06012202 0.014691081 0.0024206298
0000b0 48 b2 0a bd 67 c3 98 3c d7 d0 73 3a 15 3d 1a bd
       -0.03386143 0.018647863 0.0009300834 -0.03765591
0000c0 8c df 69 3d c7 67 fa bc cc 99 38 3b 52 72 0b bd
       0.057097957 -0.030567063 0.0028167842 -0.03404457
0000d0 b9 76 7b 3d 1d 29 ee 3c a3 67 11 3b 49 76 89 3a
       0.06139252 0.029072339 0.0022187016 0.0010487522
0000e0 58 52 07 bd 80 2c 5f 3d 06 62 37 bb b9 c6 90 bd
       -0.033037513 0.054485798 -0.002798201 -0.07069153
0000f0 99 dd 9b 3c b3 32 71 3c 3e 1e 1d 3c 12 dc 50 bc
       0.019026564 0.01472156 0.00958973 -0.012747781
000100 76 2a fb b9 ee e4 46 bd f7 49 8b 3d 65 4d 90 3d
       -0.00047906087 -0.048558168 0.06801217 0.07046012
000110 4b 7c ee ba 77 82 41 3d 68 09 81 bc f9 32 8e 3d
       -0.0018195001 0.04724356 -0.015751556 0.06943316
000120 82 8e 1b 3d 98 77 af 3d fd bb 34 3d 4c ad 4b bd
       0.037977703 0.085677326 0.044124592 -0.049725816
000130 45 ae 22 3d 7b 12 4b 3d 33 6d 0c 3b d7 b9 c7 3d
       0.039716978 0.04957817 0.0021427392 0.09752243
000140 fc 2b 24 3d eb c4 1b 3d 8e a2 e7 3d 5d 5e f8 3c
       0.04008101 0.038029592 0.11310302 0.030318433
000150 63 81 db 3b fd 30 de 3c e6 98 d5 bc b3 07 a4 bb
       0.0066987737 0.027122969 -0.026073884 -0.0050058006
000160 33 7a 87 3b 7c c8 19 bc af 94 3f bb d4 49 79 3d
       0.0041344403 -0.009386178 -0.002923291 0.060861424
000170 6a c3 2d 3d 85 f2 29 3d 7d a0 69 3d 9a fc 18 3d
       0.04242269 0.04149105 0.05703782 0.037350275
000180 23 ff 3f bc ab d1 15 bc 55 1b 1f 3d 94 5d 50 bd
       -0.011718544 -0.009144227 0.038844425 -0.050870493
000190 a4 96 9e bb 05 78 99 ba 7b aa 0d 3c dd 29 83 3c
       -0.004839735 -0.0011708742 0.008646603 0.016011173
0001a0 d2 a6 ba 3c b4 31 10 bd c3 3e 37 bd fb 41 24 bd
       0.022784624 -0.03520365 -0.04473759 -0.040101986
0001b0 b2 ce 12 bc ef a4 33 3d 35 5e 87 3d a9 79 32 3c
       -0.008960413 0.043858465 0.066097654 0.010893264
0001c0 7b ff 47 bc 93 70 b9 bd b2 f9 97 3c 63 55 cf bd
       -0.012206907 -0.09054675 0.018551681 -0.10123708
0001d0 45 6a bd bc ab 19 8c 3d ba 4d b7 bb 3d f9 8f bd
       -0.023121962 0.06840833 -0.0055939825 -0.0702996
0001e0 d8 cf 82 3b 81 d0 e0 bc 38 30 af bd b0 0f 0d 3d
       0.003992062 -0.027443172 -0.08554119 0.03443879
0001f0 60 7e 41 3d d7 8b 14 bc 46 92 a9 bb 27 56 f4 3c
       0.04723966 -0.009066544 -0.005174908 0.029826237
000200 3f 9b 6f bd 9c 0c 97 bd bc c7 bc 3d 79 b6 6b 3d
       -0.058497664 -0.07375452 0.09217784 0.057547066
000210 17 a4 a5 3c dd e8 98 3d 2c d6 5b 3c 45 dd e5 3c
       0.020219846 0.0746629 0.013417762 0.028059611
000220 82 5e 8b 3d a9 0e 83 bd 99 b0 52 3b 61 97 18 ba
       0.06805135 -0.063992806 0.0032148717 -0.0005820897
000230 3f 37 62 bd 69 06 1e bd 84 fd 61 3d 55 8d da 3c
       -0.055228468 -0.038580332 0.055173412 0.02667872
000240 81 cc 33 3d 50 ad c3 3c e5 8b 73 bc 93 8b 11 bc
       0.043896202 0.023886353 -0.014864896 -0.008883375
000250 b4 f6 c9 3b 37 9d e0 bc 22 b9 b8 3c 0b 1d 36 bd
       0.0061634425 -0.027418716 0.022549216 -0.04446129
000260 ce 01 b2 bc 63 c5 9a bd ef ea 3b bc 25 8d 4f 3c
       -0.021729376 -0.0755718 -0.011469587 0.012667929
000270 ad 07 f0 3c e3 e8 c3 3d 9d 6d 59 39 9d c7 b2 bd
       0.029300535 0.09565904 0.00020735567 -0.087294795
000280 cf ff 13 be 24 fd 8d 3c 0a 8f 0d 3c 1d 7a bb 3d
       -0.14453052 0.01733262 0.00864006 0.09154151
000290 20 7d 7b bc d5 6f 07 3d 57 73 eb 3c 00 31 a6 bc
       -0.015349656 0.033065636 0.028741522 -0.020287037
0002a0 76 c5 67 3b a5 b9 a7 3d 6a 89 71 3d ed c7 4d 3d
       0.0035365499 0.08189706 0.05896894 0.050239492
0002b0 68 bc 90 3c a5 51 ec 3b 00 0d 01 3d a9 2e 24 bd
       0.017667964 0.007211881 0.03150654 -0.04008356
0002c0 d4 c0 1d bd f2 2f d3 bc 47 ee dd bc da 6a e8 bc
       -0.038513973 -0.025779698 -0.027091159 -0.028371263
0002d0 f0 06 07 3c 1e 04 1e bd 41 e2 5f 3d a4 4e 7d 3d
       0.0082414 -0.038578145 0.054659132 0.061842576
0002e0 11 67 1c bd 50 b6 ca 3d c6 6f 3d bb da 8b bc bd
       -0.03818423 0.098980546 -0.0028905733 -0.09206362
0002f0 4e 18 82 bd 63 ee ed bc 9b e2 cc 3c e9 13 13 3d
       -0.06352292 -0.029044336 0.025010398 0.03590766
000300 7c c7 a0 3b 66 1c 3f bd 21 55 92 3c 98 61 a0 bd
       0.004906593 -0.046657942 0.017862858 -0.078311145
000310 67 ff 87 bd 89 2d 89 3d 69 42 2f 3d f2 76 a2 3c
       -0.06640511 0.06698138 0.042787943 0.019832108
000320 fe 89 d0 bc 15 1f 83 bd 74 7b 88 3d a7 45 a5 bc
       -0.025456425 -0.06402413 0.06664172 -0.020174814
000330 a3 57 a5 3d a1 1a 64 bd e6 fa bb bc ed 85 21 bd
       0.08073356 -0.055689458 -0.022946786 -0.039434362
000340 97 0d 3c 3d 08 f2 36 3d d1 4f 63 3c 73 be ff bc
       0.045911398 0.044664413 0.01387401 -0.031218743
000350 ae 52 1c 3d 3c f5 70 3d 60 30 95 bd 6e 97 86 3d
       0.038164787 0.058827624 -0.072846174 0.06571852
000360 ee 10 c8 bc ae 3c 09 3d 0f 6c 47 bc 76 95 43 bd
       -0.024422135 0.033505134 -0.012171759 -0.04774996
000370 0e 71 5d 3d 7a 40 db 3b 6e 0f e2 3b 48 95 70 bd
       0.054062895 0.006691036 0.006898812 -0.058736116
000380 86 61 15 bd 17 7c 17 bd b8 2b 36 bb dc 9f fd 3d
       -0.03646996 -0.036983576 -0.0027797054 0.123840064
000390 48 4e 45 3c 53 7e 18 3d 5d 22 1b 3d 71 3b 1b 3d
       0.0120425895 0.037229847 0.03787457 0.037898485
0003a0 a7 7e 00 3d 23 99 e9 3c 97 5a 3d bc 94 1f 98 3c
       0.031370785 0.028515404 -0.011557243 0.018569745
0003b0 c3 c1 92 3b 49 0f d3 3c 15 b8 b5 3d 55 a7 af bc
       0.0044786646 0.025764124 0.088730015 -0.021442095
0003c0 ba 67 9d 3d 92 0c 73 3c 91 45 17 bd cf 04 a3 3d
       0.076858 0.01483454 -0.036931578 0.079599015
0003d0 de ee c0 3c af cf 71 3d 2f 01 79 3d 9a 9a ec bd
       0.0235514 0.059035953 0.060792144 -0.115529254
0003e0 02 5d a4 3c 28 6d 17 3d ec ab b8 3d 51 92 16 bd
       0.02006388 0.036969334 0.090171665 -0.036760632
0003f0 b9 83 91 3d c5 b6 7a 3b f7 83 b3 3c 5b bf 95 bd
       0.07105202 0.0038255912 0.021913512 -0.07311889

fc1.bias f4 [128]
000000 8f d6 e8 3c f0 71 e8 bc cd 8d 6a bd 11 06 0a 3d
       0.028422622 -0.028374642 -0.057264138 0.03369719
000010 7f 8c e8 3c 9d 18 ef 3b f6 f3 18 bd 3e d7 1a bd
       0.028387306 0.0072966353 -0.037342034 -0.037802927
000020 24 f4 e8 bc d9 e0 45 3d 90 0b c0 3a c9 bc 57 bb
       -0.028436728 0.048310135 0.0014651883 -0.0032918921
000030 e8 c8 67 bd 2a 4b 86 bc ea 44 bf bc 04 6c b8 3d
       -0.056588084 -0.016393263 -0.02334829 0.09004977
000040 a7 87 0f 3d 17 f8 22 bd a2 46 bd bd 0f 86 38 bc
       0.035041478 -0.03978738 -0.09241988 -0.011262431
000050 71 d4 4b 3d 7d 40 b0 3c 92 f5 1f bd 5e 45 2e bd
       0.049763147 0.021515125 -0.039052553 -0.042546622
000060 a8 cd 74 3d 87 b5 b6 bd fe 83 9a bd 2c 57 ad ba
       0.05976644 -0.08921342 -0.07544707 -0.0013224832
000070 50 2a 12 3d 6a 0f 6b bc c2 19 e5 bc ed ea 4b bd
       0.035684884 -0.014346937 -0.027966384 -0.04978459
000080 49 8e fd bc 52 ea 0e 3d a2 4d ab bc 72 50 28 ba
       -0.030951636 0.034891434 -0.020911042 -0.00064206787
000090 d2 6e 63 3d 97 a5 74 3d 64 9d a8 3c 87 70 49 3d
       0.05552561 0.05972823 0.020582862 0.04917958
0000a0 cb c8 f4 3c 8b 5c 81 bd 89 7d 62 bd 52 d2 a9 bb
       0.029880902 -0.06316479 -0.0552955 -0.005182543
0000b0 93 7c af 3c 05 99 09 3d 81 9c 70 3c 41 fd c4 bc
       0.021421706 0.033593196 0.014685751 -0.024046542
0000c0 43 e4 67 bd 37 7d fc bc 26 d5 10 bb 29 df bf 3c
       -0.05661417 -0.030821426 -0.0022099703 0.02342184
0000d0 32 70 02 3b c2 33 bc 3c 34 25 c7 bd e0 06 94 3d
       0.00199033 0.022973899 -0.09723893 0.07227874
0000e0 6f 30 1d bd b6 22 da 3c 66 fa 54 bd 03 3c 33 bc
       -0.038376268 0.02662788 -0.05199661 -0.010939601
0000f0 94 bd 5e bb 41 18 85 3c 0b a5 c1 bd 0f ff 13 3d
       -0.003398751 0.016246917 -0.094553076 0.036131915
000100 01 82 c3 bd 06 a8 98 bc af fe 57 bc d6 26 58 bd
       -0.09546281 -0.018634807 -0.01318328 -0.05277141
000110 af cf 7a 3d f8 0a fe 3d 2e 46 bb bc 44 d5 d5 bd
       0.06123322 0.12404436 -0.022860613 -0.10441068
000120 8a 29 fd bc 5a 39 ca bc 4c a1 83 bd 0c 92 96 bd
       -0.030903596 -0.02468555 -0.06427249 -0.07352075
000130 b5 d6 1f 3d 38 bf a0 3d b6 e7 d1 3c 88 46 81 bd
       0.03902312 0.07848972 0.025623184 -0.06312281
000140 58 cc 16 3b b5 78 b3 bd a4 5d 37 bb 3d 98 d3 bb
       0.0023009982 -0.087632574 -0.0027979398 -0.006457357
000150 ec 64 cc bd 66 80 99 bd 0c c9 61 3b 55 0d 4f bd
       -0.09980187 -0.07495193 0.0034452109 -0.050549824
000160 9b 03 76 bc ed f5 0d bd cc 29 c1 bd 72 c0 1a 3d
       -0.015015508 -0.03465836 -0.094318 0.037781186
000170 a6 c5 43 bd 7f 83 08 bd a0 36 1b bd 52 1d 94 3d
       -0.047795914 -0.03332853 -0.03789389 0.07232155
000180 ca cb fc bc 22 c5 10 3a 38 89 8b bc 23 c5 29 bd
       -0.030858893 0.0005522539 -0.017033204 -0.04144777
000190 d2 b9 65 bd 1b 78 f6 3c 66 c5 b0 3c 7c a4 8d bd
       -0.056085415 0.030086568 0.021578502 -0.069161385
0001a0 db 1d 90 3c c9 05 5a 3b c5 d4 08 bc 20 68 57 bd
       0.017592361 0.0033267608 -0.008351509 -0.052589536
0001b0 81 a5 41 3c de 88 7a bb 31 da 1c 3a 1c 31 f6 bc
       0.011819244 -0.0038228552 0.0005983441 -0.030052714
0001c0 29 3c ab bd c7 28 a4 bd 3e fb aa bc f0 7e a3 3b
       -0.08361084 -0.0801559 -0.020871755 0.0049894974
0001d0 6e 4a 9e bc d0 56 43 bd 1f 9b 8f bd f0 fd 4a bc
       -0.0193226 -0.047690213 -0.07012009 -0.012389645
0001e0 f9 1f 39 bd 75 47 af bd 1b 30 63 3d 33 df a0 bb
       -0.045196507 -0.08558551 0.0554658 -0.00490942
0001f0 25 a1 bb 3b 76 b0 45 bd 24 8f f3 bc be 91 d3 bc
       0.005725997 -0.04826399 -0.02973134 -0.025826331

bn1.weight f4 [128]
000000 16 7d 82 3f 8b d7 87 3f 7a 3d 81 3f c2 75 8d 3f
       1.0194423 1.0612653 1.0096886 1.1051562
000010 99 4b 6c 3f 9e 2a 80 3f d3 06 85 3f f9 94 77 3f
       0.9230285 1.0013006 1.0392708 0.9671169
000020 f0 16 7d 3f 12 aa 7a 3f cf f4 7c 3f c5 d5 81 3f
       0.98863125 0.97915757 0.9881105 1.0143362
000030 67 32 75 3f a4 3e 82 3f 32 c5 86 3f cb 5d 7a 3f
       0.9578003 1.0175366 1.0528929 0.97799367
000040 f4 4c 84 3f 8b 18 72 3f 86 97 7f 3f 46 15 83 3f
       1.0335984 0.945687 0.9984058 1.0240867
000050 41 82 78 3f b7 0a 80 3f c6 a4 80 3f 4d 95 81 3f
       0.9707375 1.000327 1.0050285 1.0123688
000060 8b 4f 78 3f e2 e0 7d 3f 6d 4d 80 3f e8 46 89 3f
       0.9699637 0.9917127 1.0023628 1.0724764
000070 d0 92 7f 3f 5c 41 79 3f 7d 58 7f 3f ee 44 7d 3f
       0.99833393 0.97365355 0.997444 0.98933303
000080 16 99 74 3f 77 f3 75 3f 5f 41 7a 3f 6f a7 77 3f
       0.9554609 0.9607462 0.97756 0.9673986
000090 80 aa 7f 3f 05 ea 69 3f 27 e2 7c 3f 7a a1 81 3f
       0.9986954 0.9137271 0.9878258 1.0127404
0000a0 e1 9c 6c 3f e1 31 7d 3f 13 71 7d 3f b7 c2 76 3f
       0.9242688 0.98904234 0.9900066 0.9639086
0000b0 6c 3b 79 3f 2f c3 79 3f ff 66 79 3f 91 9b 82 3f
       0.97356296 0.9756345 0.97422785 1.0203725
0000c0 ad 7d 75 3f a7 d2 80 3f 64 e6 85 3f 8b fb 6e 3f
       0.9589489 1.0064286 1.0460935 0.93352574
0000d0 85 0b 87 3f ab ad 79 3f 30 6c 76 3f 77 f1 74 3f
       1.055039 0.9753062 0.9625883 0.95680946
0000e0 bd e7 7a 3f 07 66 72 3f d6 f5 74 3f 49 dc 82 3f
       0.98009855 0.9468693 0.95687616 1.0223476
0000f0 73 95 75 3f d0 7b 75 3f 83 dc 80 3f 70 88 82 3f
       0.95931166 0.9589205 1.0067295 1.0197887
000100 36 fa 85 3f d7 14 89 3f 35 a5 62 3f 0f 2e 84 3f
       1.0466983 1.0709485 0.88533336 1.0326556
000110 5e 4a 86 3f a6 6f 86 3f 4d 0b 80 3f f2 b3 7c 3f
       1.0491445 1.0502822 1.0003449 0.98712075
000120 7b f7 74 3f 0c ba 82 3f 89 40 7c 3f b2 e9 7f 3f
       0.95690125 1.0213027 0.9853597 0.99965966
000130 e3 c7 74 3f 81 9b 86 3f f1 4f 82 3f 00 1b 78 3f
       0.956175 1.0516206 1.0180646 0.969162
000140 8b 2f 78 3f d5 d4 80 3f ca 1a 8a 3f 8a 34 82 3f
       0.96947545 1.0064951 1.0789425 1.0172284
000150 0a 3f 83 3f 93 b1 73 3f b4 50 85 3f 93 23 86 3f
       1.0253613 0.9519283 1.0415254 1.0479606
000160 54 37 82 3f 6e 44 80 3f b0 08 82 3f 49 1d 82 3f
       1.0173135 1.0020883 1.0158901 1.0165187
000170 01 a6 80 3f 45 e6 78 3f 1a 94 85 3f 85 4c 6d 3f
       1.005066 0.97226363 1.0435822 0.92694885
000180 f5 14 71 3f f6 27 80 3f df 62 75 3f 99 7b 7d 3f
       0.941726 1.0012195 0.9585399 0.9901672
000190 b7 e2 70 3f 52 af 79 3f 74 60 84 3f 56 f4 83 3f
       0.9409594 0.9753314 1.0341935 1.030894
0001a0 6d 6a 80 3f 93 ac 81 3f f1 40 83 3f 2c 80 76 3f
       1.0032479 1.013079 1.0254194 0.96289325
0001b0 a7 87 71 3f d6 19 82 3f 37 30 73 3f 83 62 78 3f
       0.94347614 1.0164135 0.94995445 0.97025317
0001c0 01 90 7c 3f a9 f8 76 3f b5 0f 85 3f b7 9f 78 3f
       0.9865723 0.96473175 1.0395418 0.97118706
0001d0 f5 89 81 3f 49 49 7a 3f 62 63 81 3f 03 b6 83 3f
       1.0120226 0.97768074 1.0108454 1.028992
0001e0 23 56 7d 3f f3 55 7c 3f ed d2 81 3f a1 f2 75 3f
       0.9895956 0.9856865 1.0142494 0.9607335
0001f0 85 fa 7d 3f c9 3e 81 3f 45 9e 7e 3f 6e b3 6f 3f
       0.9921039 1.0097286 0.9946025 0.9363316

bn1.bias f4 [128]
000000 6a c4 00 be a8 78 b6 3d 9e b1 0a be 78 75 e0 bc
       -0.12574926 0.08909732 -0.13544318 -0.027399763
000010 a2 08 19 3e b5 17 9e bd 51 47 2d 3e 60 d3 0a bc
       0.149447 -0.077193655 0.16921736 -0.008473247
000020 09 3e d2 bd 6d db 5a 3d d8 a1 b5 3d 09 21 32 3d
       -0.102657385 0.053431917 0.0886876 0.043488536
000030 8c 83 e5 3c 74 6c 2b 3e 2a ce 41 3d 76 e5 b5 bb
       0.028016828 0.1674059 0.047315754 -0.0055510355
000040 40 47 bf 3c 21 03 16 be cd 21 87 bd d2 86 9d 3d
       0.023349404 -0.14649631 -0.06598244 0.076917306
000050 aa 66 e0 bc 72 72 3c bd 69 53 28 3e 7d 5d dc 3d
       -0.027392704 -0.04600758 0.16438068 0.10760019
000060 b6 d6 10 bd af c5 cc bd 14 2b ff 3d d0 f7 99 3c
       -0.035361014 -0.09998643 0.124593884 0.018794924
000070 df 92 56 bd e2 19 49 bd 4d 82 c8 bd 30 b4 16 3d
       -0.05238616 -0.04909695 -0.09790478 0.036792934
000080 6a 7b dd bb 5e c6 3c 3d bf 9d 4d 3d e8 ad e6 bc
       -0.006759097 0.046087615 0.050199267 -0.028159097
000090 a1 f6 b6 3a de 0d b7 bb 09 5e 29 3d 00 b0 b6 bd
       0.0013958999 -0.00558637 0.041349445 -0.08920288
0000a0 d4 6f 3b 3d cd 5b b1 bd ab 3f d2 3d 88 ed 93 bd
       0.045760944 -0.08660088 0.1026605 -0.0722304
0000b0 c8 e5 ef bd ba 9c 36 bd d8 7a 89 bc 48 4c d5 3d
       -0.11713749 -0.04458306 -0.01678221 0.1041494
0000c0 d9 b2 8c 3d ed 97 03 be 31 45 1f be 1f 9c 23 be
       0.0687005 -0.12850924 -0.15553738 -0.15977524
0000d0 79 1e 01 3e 8f ac 35 bd 00 19 80 3d bd 54 b0 bd
       0.1260928 -0.044354018 0.06254768 -0.086099125
0000e0 f7 50 c8 bd 76 9d ed 3d 19 19 c9 3c 55 02 52 bd
       -0.09781068 0.11602299 0.0245481 -0.051271755
0000f0 4a 2c 91 3d 01 0f 2f 3d b0 52 33 3e 39 89 92 3d
       0.070885256 0.04273892 0.17512012 0.071550794
000100 05 c8 67 bd 25 db 8e 3c 55 5e 05 3c 44 8c 3f 3d
       -0.056587238 0.01743848 0.008140166 0.046764627
000110 27 65 46 bd e1 39 70 3c 06 99 39 3d fa 2e bf bd
       -0.04843631 0.014662237 0.04531195 -0.09335132
000120 8e 42 7f bc af 84 a3 bd 67 dd 2b bd ef ec d3 bd
       -0.015579833 -0.07984292 -0.041959193 -0.10347926
000130 11 57 53 3c bc ee 31 3e b1 07 f2 3d 49 ea f9 3d
       0.012899176 0.17376226 0.11817873 0.122028895
000140 95 5b 01 be ec da 16 3e 47 8a 02 3e ee 4d e0 3d
       -0.12632592 0.1473195 0.12748061 0.10952364
000150 90 f4 f5 bd b5 45 e2 bc 3b 68 ee bd 27 ea 92 ba
       -0.12009537 -0.02762113 -0.11640974 -0.0011208699
000160 e4 06 a5 3c c0 4f f2 bd 07 07 70 3d a9 0f ff bd
       0.020144887 -0.11831617 0.05860045 -0.12454159
000170 da 42 36 be 02 10 f7 bc 8d 2c 13 3d c2 12 c9 bd
       -0.1779894 -0.030159 0.03593116 -0.09818031
000180 83 be 81 3d 8f b6 1a 3e c7 d7 7e 3d 01 6e 8d bd
       0.06335165 0.15108703 0.0622175 -0.06905747
000190 d1 f2 19 bd 07 a8 a9 bd 80 59 86 bd f5 7a b4 bd
       -0.037585083 -0.08284002 -0.065600395 -0.08812515
0001a0 08 9e ee bd 41 a6 b3 bd a6 e3 11 be 2a 5d 6d bc
       -0.11651236 -0.08771945 -0.14246997 -0.014487544
0001b0 81 fb f7 bc 5e f9 6f bd cc 13 87 bd b4 88 0a bd
       -0.030271294 -0.058587424 -0.06595573 -0.033821777
0001c0 9f 1b 85 3d 10 3c 36 bd a0 7a 0c be 04 10 e0 3d
       0.06499409 -0.044490874 -0.13718653 0.10940555
0001d0 79 29 28 be d8 6e 33 bd d4 a5 f4 bd a8 3e 24 bd
       -0.1642207 -0.04380688 -0.11945692 -0.040098816
0001e0 af de 09 3d f9 10 77 3d 14 d6 b2 bd b3 19 0d be
       0.033659633 0.06031892 -0.087322384 -0.13779335
0001f0 55 d2 ba 3d ce a9 0b bd 1c c4 c3 3d 0d 0d 7c bd
       0.09122149 -0.034097485 0.09558889 -0.061535884

bn1.running_mean f4 [128]
000000 14 3c d2 3d f0 09 01 3e 08 4c cf 3b f2 fb 35 3e
       0.10265365 0.12601447 0.0063262023 0.17771891
000010 30 df d4 3c 3a eb a8 3d 6b 93 c8 3c d2 2c 84 3d
       0.02598533 0.08247991 0.024484357 0.06453861
000020 20 17 31 3e 03 8d 2d 3e 57 27 59 3c 99 d0 f1 3c
       0.17293978 0.16948323 0.013254008 0.029518412
000030 47 0b f3 3d a0 7c cb 3c 26 22 5f 3d 15 ac af 3e
       0.11867385 0.0248397 0.054475926 0.34310976
000040 64 b3 b6 3e a5 14 a5 3d 73 64 aa 3b ff 39 1d 3c
       0.3568374 0.08060578 0.0051999628 0.009596347
000050 af 85 07 3e 15 8c 50 37 5d fb f7 3c 90 ea 8f 3c
       0.1323459 1.24303815e-05 0.030271227 0.017567903
000060 62 83 ba 3e c4 f4 d7 37 04 00 00 00 de 51 7b 3d
       0.36428362 2.5743975e-05 6e-45 0.06135737
000070 18 79 91 3e 05 ea 4e 3c 3b 65 bc 36 43 aa ec 3b
       0.284127 0.012629037 5.6146214e-06 0.007222445
000080 33 7c d0 3b 32 f8 c9 3e dd 28 40 3d 13 f4 a9 3c
       0.006362462 0.3944717 0.04691397 0.020746266
000090 6d c6 05 3d c8 4f 84 3e f0 24 bf 3c cd ae 04 3d
       0.032659937 0.25842118 0.023333043 0.032393266
0000a0 53 e3 43 3e b8 90 12 3c f4 ed 4f 39 27 12 4a 3e
       0.19129686 0.008945636 0.00019829703 0.19733487
0000b0 56 8e 25 3e 35 3d ca 3e fe e3 0c 3e 84 55 2d 3d
       0.16167578 0.39499822 0.13758847 0.042317882
0000c0 48 76 90 38 4f ba 2e 37 38 ce e0 3b 10 24 81 3d
       6.888487e-05 1.04145865e-05 0.0068605207 0.063057065
0000d0 80 43 ae 3b d0 7f 9f 3e 70 c3 87 3c 6b 22 77 3e
       0.005318105 0.311522 0.016572684 0.24134223
0000e0 45 86 b9 3b c0 47 7b 3e fd 47 d5 3c e9 fb 2b 3d
       0.005661758 0.24539089 0.026035303 0.041988287
0000f0 bf f2 d9 3d f3 12 5a 3d 2c 15 51 35 d4 61 48 3d
       0.10642003 0.053240728 7.7889376e-07 0.04892142
000100 04 00 00 00 4f f9 83 3d 05 db 67 3e d2 19 8a 3b
       6e-45 0.06444036 0.22642143 0.004214504
000110 e9 e9 0b 3e ea 02 ba 3e 6f 11 00 35 d0 24 ae 36
       0.13663448 0.36330348 4.7709085e-07 5.1898896e-06
000120 4e 89 22 3e 35 3b 42 3e 62 58 fb 3c 65 e3 16 3c
       0.1587269 0.18967898 0.030681793 0.0092094885
000130 89 87 96 3c 3a fc 71 3d ea 8a 5c 36 4a 9d a9 37
       0.018375175 0.059078433 3.2863413e-06 2.0219613e-05
000140 a5 f8 8e 3d 04 00 00 00 f1 20 24 3c e2 bc c9 3d
       0.06981019 6e-45 0.0100176195 0.0985048
000150 34 9d 5a 37 c5 af 5d 3c 48 72 55 3c 96 89 31 3d
       1.3030414e-05 0.013530676 0.013027735 0.043344103
000160 1c 90 4f 3d b4 09 39 3c 04 00 00 00 b4 6f b0 3e
       0.050674543 0.011293817 6e-45 0.34460223
000170 ca 2b 45 37 c5 40 dd 3c 3a 08 34 3d a6 fe 86 3e
       1.17523105e-05 0.027008424 0.043953158 0.26366156
000180 65 a5 2a 3d a2 4d 61 3d 36 f0 75 3c ad 38 a9 3d
       0.04166164 0.055005677 0.015010884 0.08262763
000190 c6 26 96 3e 16 ea 1b 3e 12 8c 72 3e c8 e0 02 3e
       0.29326457 0.15226015 0.23686245 0.1278106
0001a0 aa 76 ab 3d 94 c4 43 3e a4 b6 0b 3e ef 94 cf 3b
       0.08372243 0.19117957 0.1364389 0.006334893
0001b0 35 a2 0b 3e 04 00 00 00 8e 7a 3d 3e 54 40 83 3d
       0.13636096 6e-45 0.18503782 0.06408754
0001c0 0c 10 02 37 3b 7e 05 39 64 a6 57 3d 5a de 3d 3d
       7.75234e-06 0.00012730893 0.052648917 0.04635463
0001d0 d7 25 db 3d a7 e0 ee 3d 04 00 00 00 74 b4 a5 3d
       0.10700577 0.11663943 6e-45 0.08091059
0001e0 7a 99 b5 3c 04 00 00 00 f3 35 83 3d 09 cb 0d 3f
       0.02216791 6e-45 0.06406774 0.5538793
0001f0 04 00 00 00 7f 1d 93 3d 91 16 1b 38 21 78 18 3e
       6e-45 0.0718336 3.6975896e-05 0.14889576

bn1.running_var f4 [128]
000000 59 2b a6 3c 73 e0 0e 3c 0c e3 a2 3a b4 49 25 3c
       0.020284342 0.008720505 0.0012427284 0.010088373
000010 3b 80 4d 3c 0c 61 92 3c 8c f0 66 3b 28 60 c2 3b
       0.01254278 0.017868541 0.0035238592 0.005931873
000020 28 7a 81 3c 9c a0 50 3d 63 28 89 3b 64 0e a5 3b
       0.015805319 0.05093442 0.0041857227 0.005037116
000030 37 dd 4e 3c 42 97 5b 3b 72 9c a2 3b 3f a5 09 3c
       0.012625984 0.0033506905 0.0049624974 0.008401214
000040 0f e2 2c 3d 42 65 d7 3b 13 0e a3 3a db 76 2d 3b
       0.042207774 0.00657335 0.0012440108 0.0026468548
000050 97 1d 20 3c f5 9f e3 35 d8 ea d5 3b e9 38 5e 3b
       0.00977268 1.6959372e-06 0.0065282397 0.0033908433
000060 c3 ca f3 3c a6 7d 69 36 04 00 00 00 c1 b9 b5 3b
       0.02975977 3.4792843e-06 6e-45 0.005545825
000070 30 e5 4a 3d 1a f5 05 3b 4b b3 b6 35 da 57 c9 3a
       0.049534976 0.0020440281 1.3612238e-06 0.0015361265
000080 54 bd 51 3a c1 99 1e 3d 07 d3 1e 3c 48 2d 42 3b
       0.00080009294 0.03872085 0.0096938675 0.002962904
000090 cb 35 31 3c 1a f0 1a 3c 1b 4e 75 3b 85 2d 8d 3b
       0.010816048 0.009456659 0.0037430588 0.004308405
0000a0 44 52 d8 3c 2d 26 ab 3a 7f 48 b6 37 a2 e6 df 3c
       0.026406415 0.0013057642 2.172985e-05 0.027331654
0000b0 60 eb a1 3c 15 c2 c3 3d 66 35 ec 3b 67 4d 06 3c
       0.019765556 0.095585026 0.007208514 0.008197165
0000c0 ab 68 08 37 f2 2e db 35 e3 d1 61 3a 3f 2e 65 3c
       8.130602e-06 1.6330434e-06 0.00086143444 0.013988077
0000d0 9b 83 6f 3a fe 40 0e 3c 1d f6 da 3b ba ca 73 3c
       0.0009136737 0.0086824875 0.006682171 0.014879877
0000e0 ba 24 8e 3a 95 7a 2e 3d c1 5c 62 3b 17 14 dc 3b
       0.0010844686 0.042597372 0.003454015 0.006716262
0000f0 4f 05 dd 3c 6d ec 03 3c 4c 30 c7 33 3f a6 76 3c
       0.02698007 0.008051974 9.275445e-08 0.015054285
000100 04 00 00 00 59 25 ec 3b 6b 1b 0b 3d c0 89 1c 3a
       6e-45 0.0072066006 0.033961695 0.0005971454
000110 14 e7 2c 3c 80 19 e5 3c b5 9f 67 32 a7 f5 cd 34
       0.01055314 0.02796626 1.3482283e-08 3.836296e-07
000120 cd 10 90 3c ea 5f e4 3c 3c 8c 7d 3b 46 80 ab 3a
       0.017586136 0.027877767 0.0038688323 0.0013084493
000130 95 bf 48 3b da 34 8b 3c e6 5e fa 34 a3 08 10 36
       0.003063177 0.016992975 4.6635176e-07 2.14627e-06
000140 b4 fe 36 3c 04 00 00 00 5b c6 ed 3a e5 ab 15 3c
       0.011169124 6e-45 0.001814078 0.009135221
000150 d4 c0 b9 35 5a bb 7d 3b 94 73 28 3b 48 4b eb 3b
       1.3839694e-06 0.0038716407 0.0025703656 0.007180605
000160 e4 b5 09 3c 78 39 01 3b 04 00 00 00 26 db 73 3c
       0.0084051825 0.0019718092 6e-45 0.014883792
000170 41 cf a4 35 6c ec 15 3c 14 16 e2 3b 06 2a 40 3d
       1.2279271e-06 0.009150606 0.0068996046 0.046915077
000180 57 1c 58 3c 3b 1a 57 3c 2a 19 25 3b 3b 23 0e 3c
       0.0131903505 0.013128812 0.0025192 0.008675392
000190 22 21 68 3d 75 7b 72 3c 10 74 57 3c c4 73 63 3c
       0.056672223 0.014799942 0.01315023 0.013882581
0001a0 78 4a 07 3c 3a c0 5e 3c 33 2f 60 3c aa 53 bf 3a
       0.008257501 0.013595635 0.013683128 0.0014597077
0001b0 ef 92 82 3c 04 00 00 00 25 a3 8a 3c 80 a2 58 3c
       0.015939204 6e-45 0.016923496 0.013222337
0001c0 5d 56 82 35 85 97 27 37 0d 39 bc 3b b8 b4 d3 3b
       9.71089e-07 9.989254e-06 0.0057441057 0.0064607523
0001d0 ca 25 23 3c 89 6c d2 3c 04 00 00 00 36 d0 d7 3b
       0.00995774 0.02568652 6e-45 0.0065861
0001e0 3f f9 29 3b 04 00 00 00 d1 d4 37 3c f4 e9 42 3e
       0.0025935916 6e-45 0.011220173 0.19034559
0001f0 04 00 00 00 b7 ae 6b 3c 3f 92 af 36 75 ee 8c 3c
       6e-45 0.014384917 5.2324317e-06 0.017203549

fc2.weight f4 [64, 128]
000000 f5 aa 69 bb d4 37 f5 bc ed f7 45 bd 60 5c 76 bd
       -0.0035654877 -0.029933847 -0.048332144 -0.06014669
000010 02 8a 4b bd f3 2e 96 3d fc 1a d0 3d ca 2d 07 be
       -0.04969216 0.073331736 0.10161397 -0.13201061
000020 97 2b 92 3d 79 d0 ee bd 37 98 ca 3c 08 a4 d8 3d
       0.0713722 -0.11660857 0.024730785 0.105781615
000030 38 d2 07 3d 8f 8f 69 bc 16 73 72 bd 1f 32 b7 bc
       0.033159465 -0.014255418 -0.059191786 -0.022362767
000040 68 45 4a bd 17 97 07 3d 4e 5e 0e bc 46 43 3b 3d
       -0.049382597 0.033103075 -0.008689476 0.045718454
000050 a0 08 ef bd 86 3a bc 3d df 46 8a 3d 13 6b f0 bb
       -0.11671567 0.0919085 0.06751799 -0.007336983
000060 1d 87 2b bd 31 dd 76 3d ad 8f 3c bd 7c d2 97 bd
       -0.0418769 0.06026954 -0.046035457 -0.074131936
000070 7f 70 bd bd b5 3a 9d bd d5 48 60 bc 13 2a 5f 3d
       -0.092499726 -0.07677213 -0.0136892395 0.054483484
000080 92 01 5b bd b4 7b 24 3d f9 df 14 bc c7 8f 36 bd
       -0.053468294 0.040157035 -0.009086602 -0.04457071
000090 1a 69 19 bd 13 c9 83 bd 15 d4 cf 3d dd 03 59 bd
       -0.03745375 -0.06434836 0.10147873 -0.0529822
0000a0 e1 66 04 3d a5 51 85 bd d5 82 1b bd 91 e7 60 bd
       0.032324675 -0.06509713 -0.037966568 -0.05490834
0000b0 3f ac 03 be ee d4 09 bc 82 13 27 bd 0b 57 a2 3c
       -0.12858675 -0.008412583 -0.04079009 0.019816896
0000c0 64 e1 de 3d 9c be b6 3d 40 29 2b 3d 66 73 94 bd
       0.108828336 0.089230746 0.041787386 -0.07248573
0000d0 ea 07 70 bc 8d 60 cf bc 6d 7a c6 3d 9c 08 3e 3c
       -0.014650324 -0.025314594 0.096913196 0.011598732
0000e0 9d 6d a8 bd 3b be 86 3c c0 36 3a bc 54 53 26 bc
       -0.08224032 0.01644813 -0.0113655925 -0.010151703
0000f0 03 11 13 3c 03 e8 97 3d b6 82 8b b8 d0 da 72 bd
       0.008976224 0.074172996 -6.652383e-05 -0.059290707
000100 dd c9 71 bd 68 38 be bd e6 21 86 bd 53 08 e8 3c
       -0.059030402 -0.092881024 -0.06549434 0.028324282
000110 7d 8c 93 3d 1e c5 f4 3d 1e a2 ae 3d de 21 62 3d
       0.072045304 0.119516596 0.08527015 0.05520808
000120 43 e3 00 3d a5 20 9c bc a4 54 7f 3b 58 ce b6 bd
       0.031466734 -0.019058535 0.0038960362 -0.08926076
000130 e2 75 87 3c 8f 6c 4c bd 96 29 4f 3d c9 89 a0 3d
       0.016535703 -0.049908217 0.05057677 0.078387804
000140 cc 80 95 bd f0 16 c5 3d 11 8b e0 3c 7a 48 ef bd
       -0.07299957 0.096235156 0.027410062 -0.11683746
000150 4a 1d 39 bd 65 f1 12 bd 2c 10 4b 3d 4e f7 87 3d
       -0.045193948 -0.035874743 0.04957597 0.066389665
000160 cd 21 eb bd 9a 75 fe bc 5f f6 23 3d ac ef 38 3d
       -0.11481056 -0.031061936 0.04002988 0.045150444
000170 a7 28 4b bd cf 41 28 bd 34 d0 52 bd a8 9b d5 3d
       -0.049599316 -0.041078385 -0.05146809 0.1043008
000180 2d 9c 03 bd 86 75 a3 bd 7d 2d 71 bd bb 7f 16 be
       -0.032131363 -0.079814 -0.05888127 -0.14697163
000190 31 76 5a 3d d9 6e 7d bd 62 35 7f bd b7 8d 24 be
       0.053335372 -0.06187329 -0.06230677 -0.16069685
0001a0 be 0a c6 bd ef d8 6e bc c4 7b 23 bb 9c 1c 08 bd
       -0.09670018 -0.014578088 -0.0024945596 -0.03323041
0001b0 28 a8 f9 bc c6 6e 51 3d 22 62 5a 3c 67 e2 9f 3c
       -0.030475691 0.051131032 0.013329061 0.019517137
0001c0 a6 46 ab bd d7 d3 ce bd 42 8f 0d 3d a6 e3 8d 3d
       -0.083630845 -0.10098999 0.03456045 0.06928186
0001d0 df ae 0f be 1a fd 28 3d 30 13 5f bd 4b 54 1b bd
       -0.14031552 0.041257 -0.054461658 -0.037922185
0001e0 94 bf 0f 38 d6 04 cc bc 77 45 3e bd df 01 ab bd
       3.4272278e-05 -0.02490465 -0.046452966 -0.08349966
0001f0 e5 85 01 bc 21 45 f6 3d 36 cc 03 3d 6d 48 ad 3d
       -0.007905458 0.12024904 0.032177173 0.0846108
000200 c2 b1 91 bd 8e a5 8e 3d 1e 30 a4 3d 83 7c fc 3c
       -0.07113983 0.06965171 0.0801699 0.03082109
000210 9d 85 73 3d 61 f5 a7 3c b0 14 63 3d eb e8 a6 bc
       0.059453595 0.020502748 0.05543965 -0.020374736
000220 26 13 b9 3c d6 63 2f 3d 23 55 9e 3c a9 11 13 3d
       0.022592138 0.04281982 0.019327706 0.035905514
000230 b5 f0 87 bd fd 48 7c bd d2 58 7c 3d 80 2f db 3c
       -0.06637708 -0.061593045 0.061608143 0.026756048
000240 16 9d ac 3c d2 7f 23 bd 13 d8 8a 3d 87 ed aa bd
       0.021070998 -0.03991682 0.06779494 -0.08346086
000250 26 f6 76 3d 78 84 e4 3c 65 74 95 3d 00 d7 3f 3c
       0.06029334 0.027895197 0.07297591 0.011708975
000260 d9 b5 b0 bb 88 38 36 3d cc 4e 8f bd 8a 7a 33 3d
       -0.0053927717 0.044487506 -0.06997451 0.043818034
000270 b1 16 45 bd c5 54 c6 3c ec f3 35 3d 4a 76 7c 3d
       -0.048117343 0.024210343 0.044422075 0.061636247
000280 a5 13 7e 3d f7 1c 81 3c c8 69 89 bd 7c 05 a0 bd
       0.062030453 0.015760882 -0.06709629 -0.07813546
000290 1a ed 9a 3d 7d 1b 0a 3d 97 d1 a8 bc 5d 59 1d bc
       0.07564755 0.03371762 -0.020607753 -0.009603825
0002a0 a8 51 ab 3d 0c 6b 9a bd 18 66 85 bd 75 57 35 bd
       0.08365184 -0.07539949 -0.065136135 -0.04427286
0002b0 17 10 2e 3d f1 e8 90 3d f2 06 0a 3d c8 c0 56 bd
       0.042495813 0.0707568 0.03369803 -0.052429944
0002c0 eb 39 9b bd ea 26 d0 bd fb ab 9f bc de c4 a2 3d
       -0.07579406 -0.10163672 -0.019491186 0.07947706
0002d0 93 f5 1e 3d a1 be c8 bd 2e 7e 05 bd 4b 10 0b bd
       0.038808417 -0.098019846 -0.032591037 -0.033951085
0002e0 3c b8 d5 3d c8 84 37 bd 32 c8 c6 bd 8c 2e 89 bd
       0.104355305 -0.044804364 -0.09706153 -0.06698331
0002f0 df 35 81 3b fd 2f 3e bd 84 49 8e 3d d1 06 a4 bd
       0.0039431895 -0.046432484 0.06947616 -0.080091126
000300 cd 31 a5 bb 6a 77 2b bd 2d ae 07 bb 39 2b 1a bd
       -0.005041337 -0.04186193 -0.0020703182 -0.037638877
000310 7e ad 85 bd 1b f1 27 3b 58 d3 f4 3d 58 93 d1 bb
       -0.06527232 0.0025625888 0.11954373 -0.0063957386
000320 ee 6b 83 3d cc 75 c0 bd 34 28 c3 bd 5c 73 80 bd
       0.0641707 -0.09397468 -0.095291525 -0.06272003
000330 65 c2 a5 bb da 72 c9 3c 62 de f3 3c 2e df 6a bd
       -0.005058574 0.024590898 0.029769126 -0.057341747
000340 46 bc b0 bd 11 22 fb 3c 84 5b a7 3c 1f d6 3e bd
       -0.0862966 0.030655893 0.02042938 -0.04659092
000350 d5 55 0c 3a b3 a1 af bc 44 cc a9 bc 02 8f bd bb
       0.0005353366 -0.021439409 -0.020727284 -0.00578487
000360 7a 8d 73 bc 71 13 8d bc 65 32 4b 3c c4 38 f1 bc
       -0.014865274 -0.017221184 0.012402152 -0.029446013
000370 7c 09 21 bd dd 52 9f 3d fe 7b 91 3d af 08 d2 bd
       -0.039315686 0.07779477 0.07103728 -0.102555625
000380 d7 43 84 3d 20 d7 05 3d e6 be aa 3b f7 06 92 ba
       0.06458252 0.032675862 0.005210745 -0.0011140992
000390 4d a5 bf 3d bd 78 e3 bb 26 b1 2b bc ba 78 d3 3c
       0.093577005 -0.0069418834 -0.010479247 0.025814403
0003a0 c7 75 20 bd 60 cc e2 3c 7a 7f d2 3b 9b 59 b1 3d
       -0.03917482 0.027685344 0.006423888 0.08659669
0003b0 65 1e 0a be aa c9 1f 3b eb 75 13 bd 57 dd 4e 3d
       -0.13488157 0.0024381676 -0.036001127 0.050504055
0003c0 0e e3 89 3d 6b ed 10 3d 17 3b 84 3d 98 0c f4 bc
       0.0673276 0.03538267 0.06456583 -0.029791161
0003d0 e5 0b 6f 3d 46 ce e7 bd 74 29 f0 3d ea 2a 8d bd
       0.058360953 -0.113186404 0.117266566 -0.06892951
0003e0 79 da 3f bd a9 1b de 3c 1a 71 ed 3d 78 12 6b 3d
       -0.04683921 0.027112799 0.11593838 0.05739066
0003f0 7d 0d ce bd 04 a3 e8 bc 41 d0 24 bd d2 c4 0d bd
       -0.100611664 -0.028398044 -0.04023767 -0.03461153

fc2.bias f4 [64]
000000 74 c9 07 3e f5 e9 85 3c 48 66 1b be 73 50 f5 bc
       0.13260442 0.016346911 -0.15175736 -0.029945588
000010 1f 35 fa bd 3c ed 4c 39 f8 50 26 bd b3 6d dc bd
       -0.12217163 0.00019543333 -0.04060456 -0.10763111
000020 67 fd a2 bc bb 5d bd bd 75 99 3f bd 31 d6 f6 3c
       -0.019896222 -0.09246393 -0.046777207 0.030131431
000030 74 25 6e bc 8c 50 a3 3d 24 68 bd bd 01 05 0f 3d
       -0.014535297 0.079743475 -0.09248379 0.03491688
000040 ca 40 5c 3c 39 b3 a7 bd fe ba 40 bd ae 87 9c bd
       0.013443181 -0.08188481 -0.04705333 -0.07643066
000050 2d 78 9c 3c 46 4b c8 3d 4b 50 c8 3c 2f f8 ea bd
       0.019100273 0.09779982 0.02445235 -0.114731185
000060 b1 34 c1 bd fc 48 20 bc 3d 5a 12 bc 67 94 a0 3d
       -0.09433878 -0.009783026 -0.008932647 0.078408055
000070 07 20 bc bc b5 b2 0d be 57 bb ad bd 07 43 06 be
       -0.02296449 -0.13837703 -0.08482998 -0.13111506
000080 c1 fb 07 bd 13 b4 a4 bd 70 f7 8a 3d 99 3a fb bd
       -0.033199076 -0.08042159 0.06785476 -0.12267036
000090 25 f5 a0 bd ec 3b 18 3e 37 4b d7 bb 96 13 60 bd
       -0.078592576 0.14866608 -0.0065702456 -0.05470618
0000a0 4f 80 2a be 63 8c 7b bd a7 75 b1 bd 83 7f c7 bd
       -0.16650508 -0.06141318 -0.086650185 -0.09741118
0000b0 71 da 5a bd 72 5a 0a bd f0 7a b8 bd 6b 19 2b bd
       -0.05343098 -0.03377766 -0.090078235 -0.041772287
0000c0 f1 21 9e 3d 2f 8a 3a 3d b6 ed a1 bc 5c 0e ec 3d
       0.077213176 0.04554194 -0.01976667 0.11526176
0000d0 07 b3 9c bc ff e5 c7 3c b1 be 15 3d 66 cd 4e be
       -0.019128336 0.024401663 0.03655881 -0.20195541
0000e0 a8 73 43 bd 23 8c 82 3d 45 e6 02 3e fe f6 d4 bd
       -0.04771772 0.06374385 0.12783153 -0.103986725
0000f0 2f c6 a0 bd d5 b6 5e bd 27 e3 a1 bd 77 e3 30 bd
       -0.078503005 -0.05437358 -0.07904654 -0.043185677

bn2.weight f4 [64]
000000 d8 15 73 3f 6e fd 6c 3f ec fb 91 3f 71 df 78 3f
       0.94955206 0.92574203 1.1405005 0.97215945
000010 60 59 76 3f 94 f2 74 3f 0e 9f 75 3f 6a e8 8d 3f
       0.96230125 0.95682645 0.95945823 1.1086552
000020 b4 57 81 3f aa 9c 78 3f c7 61 82 3f 9f 4d 7e 3f
       1.010489 0.9711405 1.0186089 0.9933719
000030 c6 7c 81 3f a7 d0 61 3f b1 d0 76 3f 81 32 7a 3f
       1.0116203 0.88209003 0.9641219 0.9773331
000040 98 31 71 3f b3 b4 8e 3f 86 bf 80 3f b2 34 83 3f
       0.942163 1.1148895 1.0058448 1.0250456
000050 24 f8 74 3f a4 fe 76 3f 0a 07 76 3f a9 b2 7d 3f
       0.9569113 0.964823 0.9610449 0.9910074
000060 94 0e 74 3f 87 fd 74 3f 04 06 82 3f d2 1f 67 3f
       0.95334744 0.9569935 1.0158086 0.9028293
000070 ea ec 65 3f 59 f5 8b 3f aa dd 89 3f 59 ae 7f 3f
       0.8981463 1.0934249 1.0770772 0.9987541
000080 6a 56 80 3f 59 4b 80 3f a9 a7 77 3f 79 32 83 3f
       1.0026371 1.0022994 0.96740204 1.0249778
000090 29 2e 95 3f 27 82 6d 3f c8 ee 81 3f e5 2b 6a 3f
       1.1654712 0.9277672 1.0150995 0.9147323
0000a0 b3 4a 83 3f b3 f2 79 3f ae 2f 7c 3f e6 dc 6e 3f
       1.0257171 0.97635955 0.98510253 0.93305814
0000b0 ef 62 6c 3f b9 9f 6d 3f c9 c2 93 3f 17 63 76 3f
       0.9233846 0.9282184 1.1543819 0.9624495
0000c0 e0 d1 70 3f 00 78 78 3f 7f 41 70 3f e9 48 7a 3f
       0.94070244 0.97058105 0.9384994 0.977675
0000d0 f2 8c 87 3f 97 68 77 3f 3e e3 6d 3f ae 5e 8d 3f
       1.0589888 0.96643966 0.9292487 1.1044519
0000e0 b9 7e 7e 3f a8 93 6c 3f 8c d8 76 3f b9 b2 67 3f
       0.99412113 0.92412806 0.96424174 0.90507084
0000f0 ca 9f 68 3f 57 99 78 3f 35 9e 7d 3f d3 f3 7d 3f
       0.9086882 0.9710898 0.9906953 0.9920017

bn2.bias f4 [64]
000000 7e 47 9d ba 40 60 fd 3c c9 45 cd 3d 10 40 7e bd
       -0.0011999456 0.030929685 0.10023076 -0.062072814
000010 e2 38 25 bd 7c 62 78 3d c7 2b ac 3c f1 b1 a4 3d
       -0.04033745 0.060640797 0.021016968 0.08041752
000020 fd 36 c4 3d 54 d1 e1 3d 8f 5f 25 bd 3c 3f 6c bc
       0.09580801 0.11026254 -0.040374335 -0.014419373
000030 e9 d1 a3 bd 0c c1 91 3d 6b a8 04 3d 9c b7 b2 bc
       -0.079990216 0.07116899 0.03238718 -0.021816067
000040 76 8c 1b 3a c6 1c e1 3d f8 7f 5b bd 6c ee eb 3d
       0.0005933711 0.10991816 -0.053588837 0.11520085
000050 3f 90 ca 3d 4b 69 88 3d 75 a2 b6 bd 7f dc 0c 3c
       0.09890794 0.06660708 -0.08917705 0.008597492
000060 91 72 15 be c5 0c 21 3d aa 28 02 bb f0 2e 65 3d
       -0.14594485 0.03931882 -0.0019860663 0.055952966
000070 c1 50 87 3c 07 e1 0b 3e 1f 4d c9 3d 16 4e 3e 3d
       0.016517999 0.1366006 0.09829163 0.046461187
000080 b0 68 d9 3d 19 ce 92 3d 6c 2d dd 3d eb 40 17 bd
       0.10615671 0.07168216 0.10799679 -0.036927145
000090 ea a9 bf 3d 82 3e a7 3d c5 ee cc bb e0 da 28 3c
       0.093585804 0.08166219 -0.0062540495 0.01030609
0000a0 3c 2f 0f 3e 1d c3 85 3d 2a 1a 21 3c c9 13 5a bd
       0.13982862 0.065313555 0.009832898 -0.053241525
0000b0 4e 01 3f bd 94 45 87 3d 17 d6 27 3e 93 a4 1b 3d
       -0.046632104 0.06605068 0.16390263 0.037998747
0000c0 56 85 1c bd 8a 7f c7 3d ea 0e 28 3d 89 dc 07 3c
       -0.038213097 0.09741123 0.04102985 0.008292326
0000d0 31 3b 14 3e 84 f8 c8 3c 8a 9c aa 3b 02 1e eb 3d
       0.14475705 0.024532564 0.005206649 0.11480333
0000e0 2f c4 6d bd 66 53 84 3c 4e ce e7 3b ed 1b 97 3d
       -0.058048423 0.016153049 0.007074154 0.07378373
0000f0 84 b9 be 3a 30 16 04 be ab 1c 99 bb 9c 96 90 bd
       0.0014551138 -0.12899089 -0.004672607 -0.070599765

bn2.running_mean f4 [64]
000000 43 ae 0e 3f 91 28 87 3e 42 1c d6 3d ef 8b a8 3e
       0.5573465 0.26398137 0.104546085 0.3291926
000010 23 c6 ad 3d d5 a5 e5 3e 32 8c 60 3e 11 9f d1 3d
       0.08485057 0.44853082 0.2192848 0.10235418
000020 15 35 eb 3d d5 23 c9 3d 8d 89 46 3e 1d cc cd 3e
       0.11484734 0.098212875 0.19388409 0.4019479
000030 b0 7f 92 3e c7 99 90 3e 91 8b 6b 3e b3 90 1d 3f
       0.28613043 0.28242323 0.23002459 0.6154892
000040 4e a8 ce 3e 0d 6e a4 3d a6 87 87 3e d4 16 d3 3d
       0.4036278 0.08028803 0.2647068 0.103070885
000050 8c b7 8c 3e f8 ff d0 3e 36 d8 d6 3e b5 a7 5b 3e
       0.27483785 0.4082029 0.4196183 0.21450694
000060 63 c4 8c 3e 7a c7 e1 3e ca 66 95 3e 0b c3 e1 3e
       0.2749358 0.440975 0.29179984 0.44094118
000070 8e ac 4b 3e 4f 94 d2 3d 10 26 cd 3d b2 f6 c3 3d
       0.19890043 0.10282194 0.100170255 0.09568538
000080 e3 4c 06 3e c9 cd dc 3d be dc 17 3f 08 5e 44 3e
       0.13115267 0.10781438 0.593212 0.19176495
000090 bf 69 d8 3d e7 c8 a6 3e 9a 15 00 3f c1 67 fd 3e
       0.105670445 0.3257515 0.5003296 0.4949322
0000a0 52 b3 b0 3d 72 a0 00 3e 08 cd 8d 3d e9 7b 0b 3e
       0.08627953 0.12561205 0.06923872 0.13621487
0000b0 4c 3b 56 3e 5b dd 3c 3f 65 cc 0f 3e 18 83 d2 3d
       0.20921057 0.7377526 0.14042814 0.102789104
0000c0 a3 2d a9 3e 40 1b 4c 3e 34 bb ed 3e c7 20 28 3f
       0.3304263 0.1993227 0.46431887 0.65675014
0000d0 88 84 ed 3d f4 5c cf 3e 0e 5a 18 3f 4b 26 6d 3d
       0.11597544 0.40500605 0.5951241 0.057897847
0000e0 b7 f4 67 3e b9 67 31 3f a7 eb 07 3f 34 b6 89 3d
       0.22651945 0.69298893 0.5309395 0.067242056
0000f0 53 ce 33 3e ff aa 6c 3e 30 7c b7 3e 89 65 56 3e
       0.17559175 0.23112105 0.35836935 0.2093717

bn2.running_var f4 [64]
000000 f8 c5 16 3f 64 cc 86 3e 9b d0 85 3d 49 34 de 3d
       0.58895826 0.26327813 0.06533929 0.10849816
000010 25 84 70 3d 24 68 5f 3e 22 28 8b 3e 9c 81 80 3d
       0.058719773 0.2181707 0.27179056 0.06274721
000020 45 f6 89 3d 01 9b 60 3d 62 79 14 3e b1 a0 cf 3e
       0.06736425 0.054835323 0.14499429 0.40552285
000030 12 2e 79 3e 04 1b f1 3d 32 b2 d4 3e 58 12 9e 3e
       0.2433398 0.11772731 0.41542202 0.3087337
000040 25 c1 d5 3e 71 5a 2d 3d fa f8 ef 3d 41 8d 5b 3d
       0.4174892 0.04232258 0.117174104 0.053601507
000050 36 89 68 3e 1f b3 0e 3e 8d 88 41 3e 90 e2 ec 3d
       0.22708592 0.13935517 0.18899746 0.11566651
000060 9c 1e 2a 3e ca 20 cb 3e b1 f0 28 3e ab 11 9a 3e
       0.16613239 0.39673454 0.16498066 0.30091605
000070 ab c1 cf 3d fd 4f 8c 3d bc 4c 68 3d 88 65 43 3d
       0.10144361 0.06851194 0.056713805 0.04770425
000080 76 7c b1 3d 1e 90 8f 3d ba 0a 92 3e c8 2b 05 3e
       0.08666317 0.0700991 0.2852381 0.13004982
000090 27 78 87 3d ca 95 9b 3e 04 fc 86 3e d2 59 71 3e
       0.06614714 0.30387717 0.26364148 0.2356942
0000a0 2b a8 3c 3d 23 0d 84 3d a5 d1 c5 3c f9 65 8b 3d
       0.046058815 0.06447818 0.024147818 0.06806559
0000b0 9b 46 40 3e 0b d1 d2 3e 42 15 ed 3d 74 c8 48 3d
       0.18776934 0.41175112 0.1157632 0.049019292
0000c0 24 c3 03 3e b6 d4 ec 3d 91 7d 57 3e 63 31 b6 3e
       0.12867409 0.11564009 0.21043994 0.35584554
0000d0 69 ba 9f 3d 02 bb 03 3f 93 7e 87 3e 19 99 3a 3d
       0.07799227 0.51457226 0.26463756 0.04555616
0000e0 61 4d cf 3d 44 48 69 3f f7 76 67 3e eb 92 ea 3c
       0.10122181 0.91125894 0.22603975 0.02863451
0000f0 a8 3a 2a 3e b5 7d b0 3e 56 05 a8 3e 9a 38 25 3e
       0.16623938 0.34470907 0.3281657 0.16134873

fc3.weight f4 [32, 64]
000000 6d ba b3 3d 09 8e 24 3d 70 aa 5b bc e5 81 86 bd
       0.08775792 0.040174518 -0.013407335 -0.06567744
000010 13 42 67 bd 98 57 ae 3d c5 98 80 3d 83 1e a2 3d
       -0.056459498 0.08512801 0.062791385 0.07915976
000020 9f 56 c1 3d a7 31 d4 3d 14 ea c4 3c 84 9d ce 3d
       0.0944035 0.10361033 0.024037398 0.100886375
000030 ed b1 ea bc bc 94 a8 3d 42 23 1d ba 55 e8 8d bd
       -0.028649295 0.08231494 -0.00059943285 -0.069290794
000040 33 44 a2 bd 8b aa 80 bd f8 2a 56 3e 16 20 47 bd
       -0.07923164 -0.062825285 0.20914829 -0.048614584
000050 7c 2d 44 bd 78 76 fd bd 2e 58 69 3d 7c 8b 2e 3e
       -0.04789494 -0.12376112 0.05696886 0.17045397
000060 10 b7 74 bd 28 bc ef 3b db 37 c2 3d 99 01 52 3d
       -0.059744895 0.007316131 0.0948331 0.051271055
000070 88 29 9a bc 56 89 44 3d 1e 42 78 bd 9c 7b c8 bd
       -0.018818632 0.047982536 -0.06060993 -0.097892016
000080 58 08 fb 3d f5 a4 1e 3e 79 4b 48 3d ac 83 f0 bc
       0.12257451 0.15492614 0.0489001 -0.029359661
000090 0f 00 1d bd f5 8a 66 bd c9 82 3c be ca 42 a6 ba
       -0.038330134 -0.056284864 -0.18409266 -0.00126847
0000a0 18 a7 00 bd 00 a6 1a bd d3 0a 20 bc e7 88 a8 bd
       -0.031409353 -0.037755966 -0.009768206 -0.08229237
0000b0 84 70 e8 bd ed e5 9d bd ea 58 a3 bc 97 bf 8c bd
       -0.11349586 -0.077098705 -0.019939858 -0.0687248
0000c0 4f c5 8f bd c3 e0 3a bd 4e 97 7c 3d 5a 48 71 bd
       -0.070200555 -0.045624506 0.061667733 -0.05890689
0000d0 e1 44 19 3d fb 27 c3 bc 85 d9 91 3d c3 b3 0c bd
       0.037419204 -0.023822775 0.07121567 -0.03435112
0000e0 0d 4e 1e 3e 49 40 d5 3d c7 44 b1 bc 85 26 1f bd
       0.15459462 0.10412652 -0.02163924 -0.038855094
0000f0 58 74 47 3c f5 26 5d 3c d2 22 8e 3d 68 cb 41 3d
       0.012173735 0.013498058 0.06940235 0.047313124
000100 b4 4e ae 3d ca 2d 62 3d e8 3f 85 bd 12 a6 72 3d
       0.08511105 0.05521945 -0.0650633 0.05924041
000110 2f a4 a8 3d 67 97 b9 bd 4f 22 75 bd 08 10 f8 3d
       0.082344405 -0.09062081 -0.059847172 0.12112433
000120 f5 27 c8 3d ce 05 14 bd 0d 66 3e bd 9e 5b 98 3d
       0.09773246 -0.03613835 -0.046484042 0.074393496
000130 de 19 97 3d e3 4a e2 3c 4c 8e bb bd 4d c2 d4 3d
       0.07377981 0.0276236 -0.09158 0.103886224
000140 bb 28 81 3c d2 4c ba bd 23 d2 00 3e 65 b4 e7 3b
       0.015766492 -0.090966836 0.12580161 0.0070710653
000150 bf 66 9c bb 3d 78 8d bd 4c fb 58 3d 23 0b 00 3e
       -0.0047729905 -0.06907699 0.05297403 0.12504248
000160 f6 8f 93 3c 18 0f 57 3d e1 f3 ad bd 96 29 e8 3c
       0.018012982 0.05250463 -0.08493782 0.028340142
000170 5d 10 26 bd 28 61 16 bd 7a 02 78 bd b2 05 7e 3d
       -0.04054295 -0.03671375 -0.060549237 0.06201715
000180 d7 e0 0d 3e 05 d1 c2 3d d6 95 b1 3d a7 d9 8c bd
       0.13855301 0.095125236 0.08671157 -0.068774514
000190 99 b4 79 3d c1 ef 9d 3c 38 bd 35 be b3 bf fd bc
       0.060963247 0.019279363 -0.17747962 -0.030975198
0001a0 a1 01 db 3d 66 0f 3c 3c 9d e4 10 3b fb 75 7e 3d
       0.1069367 0.011478281 0.002210892 0.062124234
0001b0 9a 6d 7a 3d 47 cc 18 3d 40 d0 a4 bc 61 da f7 bc
       0.06113968 0.03730419 -0.020118833 -0.030255498
0001c0 7b 04 f6 bd d0 39 69 bd 4b 7c a1 bc fe 64 91 3c
       -0.12012573 -0.0569399 -0.019712588 0.017748352
0001d0 6d d8 0a 3e 51 a2 b9 bd 9e bf cb bd 82 23 69 3d
       0.13559122 -0.090641625 -0.099486575 0.05691863
0001e0 90 43 91 3d 8b b3 b0 bd 84 d8 12 3d 0f 53 9a bb
       0.07092965 -0.08627995 0.035851017 -0.0047096084
0001f0 32 6a dd bc b1 f0 d5 bd b6 4b af 3d c2 42 3c bd
       -0.027028177 -0.10446299 0.085593626 -0.045962103
000200 0a cf dc 3c 83 c1 d4 3d fb 6a b1 3d 05 21 e4 3d
       0.026954193 0.10388472 0.08662983 0.111391105
000210 99 4b e3 bd 09 28 c5 bd 18 ac 48 3d 38 1c f3 3c
       -0.110984035 -0.09626777 0.048992246 0.029676542
000220 ff 04 be 3d 34 78 90 3d 50 3c 90 3d e5 3c 3b 3b
       0.09278297 0.07054177 0.07042754 0.0028570232
000230 ea a6 74 3c 57 99 17 3d 09 45 b3 bc b7 9f 84 bd
       0.014932374 0.03701147 -0.021883504 -0.06475776
000240 f8 59 8b bd f5 dc bd 3c 64 7a d7 3d 2e 86 b9 3d
       -0.068042696 0.02317665 0.10521391 0.09058796
000250 11 db d9 bd 5c e2 c8 bc ce c9 d2 3d 94 06 b5 3d
       -0.10637487 -0.024521999 0.102923974 0.08839145
000260 32 c8 9e bc 81 d2 bb 3d 10 60 1c bd e5 df 46 bb
       -0.01938257 0.0917101 -0.03817755 -0.0030345854
000270 ce 73 71 bd 60 e3 7e 3d 19 58 9e bd 96 6b 9c bb
       -0.05894833 0.06222856 -0.07731647 -0.0047735674
000280 d2 0d b6 3a 4e 2a 95 3d 60 9c 21 3b df 85 43 3d
       0.0013889617 0.072834596 0.0024659857 0.04773509
000290 ff c0 a1 3d ca ec 09 bd cb 95 07 bc 33 bc 0e 3d
       0.07898139 -0.033673085 -0.0082754595 0.03484745
0002a0 ed aa fa 3c af ad 09 bc b0 1d f7 3d 09 5f 17 3d
       0.030599082 -0.008403226 0.12066209 0.036955867
0002b0 c8 55 a3 3d 14 a6 31 bc 01 f3 20 3d 67 84 dd bd
       0.07975346 -0.010842819 0.039294247 -0.10816269
0002c0 ed a9 ba 3d 25 40 11 bc a3 35 c4 3d 10 f8 b8 bd
       0.09114442 -0.008865391 0.09580543 -0.09031689
0002d0 19 82 d5 3d cc 8e 0d be 3b 77 bd bd c9 be 10 3d
       0.10425205 -0.13824004 -0.09251257 0.035338197
0002e0 26 44 c2 3c ab 85 23 3d 1f 68 8b bc 57 89 16 3d
       0.023714136 0.039922398 -0.017017422 0.03675207
0002f0 f0 00 bf 3d 17 02 a4 ba 37 c1 a4 bc a5 26 a0 bd
       0.09326351 -0.001251283 -0.020111663 -0.07819871
000300 bb 88 7d 3d 86 26 88 3d ef 92 0f be b4 86 02 3e
       0.061897974 0.06647973 -0.14020894 0.12746698
000310 32 d7 06 be de 8a 25 3d 9d 8f 23 bd 9f 07 89 bc
       -0.13168028 0.040415637 -0.039931882 -0.016727267
000320 28 ac cf 3d a5 97 3c 3d b4 69 b6 3d b7 dd 74 bc
       0.10140258 0.046043057 0.0890688 -0.014945439
000330 7c 50 0e 3c 6b 86 9b bd 65 c0 0b be 77 45 84 bd
       0.008686181 -0.075939976 -0.13647611 -0.06458562
000340 82 87 00 bd c9 54 28 be e0 3f 19 bd 03 92 c9 3c
       -0.03137923 -0.16438593 -0.03741443 0.024605757
000350 53 1c ff bd 7b 99 2a 3d ae 66 8b bd 0b 52 9d bd
       -0.12456574 0.041650277 -0.06806694 -0.07681664
000360 ee 9b e9 3c 1a 08 48 3d 95 dd aa 3c 14 b2 69 bd
       0.028516736 0.04883585 0.020857612 -0.057054594
000370 27 8c 0b be 1a ad 7d bd be b8 3c 3d fb fe 77 3d
       -0.13627683 -0.06193266 0.04607462 0.060545903
000380 09 be a9 3d 1b 4e 20 bd 24 13 2b 3b d5 a0 19 be
       0.082881995 -0.039136987 0.0026103938 -0.15002759
000390 a6 72 10 be e6 23 a4 3c b0 21 d5 3d 5b cc 81 bd
       -0.14106235 0.020036649 0.10406816 -0.06337806
0003a0 da 71 19 bd 4c ef af 3d db 24 53 bd d6 02 7a 3d
       -0.037462093 0.08590564 -0.05154882 0.06103786
0003b0 2a 74 97 bd ec 05 f3 3d 80 fd 84 bd e8 03 60 3d
       -0.073952034 0.11866364 -0.06493664 0.054691225
0003c0 a3 b1 76 3d 7b fe b7 bd d7 b1 68 3c fb b3 bc bd
       0.060228 -0.08984085 0.014202557 -0.09214016
0003d0 25 05 80 3d e0 b2 be bc fd 9d 05 3e 15 bb 8b bd
       0.06250981 -0.023278654 0.13048549 -0.068227924
0003e0 8c 42 ba bd 40 79 5b bc 3b ca 0c 3e 99 0a eb bd
       -0.09094724 -0.0133956075 0.1374902 -0.11476631
0003f0 07 9e d3 bc 12 dc 6a bd 26 1c 22 3c a3 b4 9b 3d
       -0.02583219 -0.05733878 0.009894406 0.07602813

fc3.bias f4 [32]
000000 49 82 c5 3c c8 d8 24 bd 77 e4 a2 bc 8d 64 0c 3e
       0.024109976 -0.0402458 -0.019884331 0.13710232
000010 1b d3 56 bd 69 82 0b be 43 f9 d4 3d ae 53 a5 3d
       -0.05244742 -0.13623966 0.103991054 0.08072601
000020 b0 26 c9 bc b6 75 d6 bd 0e 7c 30 3d 53 27 af bd
       -0.02455458 -0.1047167 0.043087058 -0.085524224
000030 fe a3 35 bd c7 ae 16 bd 1d b3 9f 3d 1b 86 bb bc
       -0.04434585 -0.036787774 0.07797835 -0.022891095
000040 a3 cb f0 3c 5e ef f0 3d 53 c8 83 3d e6 93 33 3d
       0.029393977 0.11764406 0.06434693 0.04384222
000050 ef 6b 50 bc ba fd 9a 3d 24 95 b7 bc b0 a3 96 3b
       -0.012721046 0.07567926 -0.022409983 0.00459715
000060 c6 9a 8d bc 45 c2 45 3b 99 ec 96 bd f1 8d 46 bd
       -0.017285716 0.0030175608 -0.07369346 -0.04847521
000070 dc 16 23 3e d2 2e e5 3d 78 f6 52 3d 63 75 ce bd
       0.15926689 0.11190571 0.051504582 -0.100809835

bn3.weight f4 [32]
000000 9e a0 86 3f bc b9 78 3f 7d ad 7c 3f 5a 62 72 3f
       1.0517766 0.9715841 0.9870222 0.9468132
000010 45 32 6d 3f 69 61 6d 3f 72 d7 7d 3f 5f 05 72 3f
       0.9265483 0.9272676 0.9915687 0.94539446
000020 5a 8f 67 3f f8 4f 84 3f c6 ad 74 3f 37 d0 80 3f
       0.9045311 1.0336905 0.9557766 1.0063542
000030 3c 8d 8d 3f 9d 38 7e 3f d7 01 7b 3f 8f 28 74 3f
       1.1058726 0.99305135 0.9804968 0.9537439
000040 d1 5e 65 3f 4f d2 88 3f 4f 37 6e 3f 5f f8 83 3f
       0.89597803 1.0689181 0.93053144 1.0310172
000050 03 da 8a 3f 67 6e 7f 3f 93 9b 82 3f 5b 83 6f 3f
       1.0847782 0.99777836 1.0203727 0.9355981
000060 38 7c 77 3f e5 06 6b 3f 20 9b 82 3f ae 1d 6e 3f
       0.9667392 0.91807395 1.020359 0.9301404
000070 17 3f 7c 3f 94 5e 81 3f f9 96 91 3f 9b f1 72 3f
       0.9853377 1.0106988 1.1374198 0.9489991

bn3.bias f4 [32]
000000 6f 9f 9e bb e9 cb 9c 3d d5 3e 45 3e 3c 32 f7 bc
       -0.0048407833 0.0765608 0.1926225 -0.03017532
000010 73 88 eb 3d 91 fe 71 bd 7d 26 6b 3d 88 6d 16 3e
       0.11500635 -0.059080664 0.057409752 0.1469022
000020 25 17 54 3e 2f 5f 44 be e7 62 d8 bd 06 e2 d9 3d
       0.20711954 -0.19176935 -0.10565739 0.10638814
000030 72 43 18 be 3b 84 17 3e f1 3c e4 3c 62 23 18 3e
       -0.14869478 0.14796536 0.02786109 0.14857247
000040 bb b0 2c 3e 9a db 94 bd 78 ac 2f 3e ff 2b 85 3e
       0.16864292 -0.07268448 0.17155635 0.2601013
000050 d0 0a 20 be a5 92 35 3e 83 2d d3 bd 12 93 19 3c
       -0.15629125 0.17731722 -0.10311415 0.009373443
000060 8d 14 02 be 13 27 bb 3c bc 93 bb bd 95 c3 02 be
       -0.12703152 0.02284578 -0.091590375 -0.12769921
000070 95 f7 18 3e db ab e9 3d ba 9b de bd f9 60 10 3e
       0.14938195 0.11409732 -0.10869546 0.14099492
